models/CNN_Model_Sign_Language_best.onnx (onnx, 536440 bytes, 26 tensors)

conv1.weight f4 [20, 1, 5, 5]
000000 6e 5f 4e bd 6f 8b f6 bd 35 ff ca 3d 3a 9c c2 3d
       -0.050383978 -0.120383136 0.09911958 0.09502454
000010 e1 3a 3a be 4d 87 72 be 58 0d f9 bd 22 e5 2f bd
       -0.18186523 -0.23684426 -0.12160748 -0.042943127
000020 12 60 7c bd f1 1d bc bc dd 15 74 3d 77 b8 d2 bc
       -0.061615057 -0.022963496 0.059591163 -0.025722725
000030 3e 94 ff 3d ed bf f8 3c a7 1f a3 3d 42 ca af bd
       0.12479447 0.030364955 0.079650216 -0.085834995
000040 6e a0 56 3e 7c b6 03 be 2c 04 68 bd ed 56 63 3e
       0.20959637 -0.12862581 -0.056644604 0.22201128
000050 95 cd 55 3e 73 12 88 bc 25 3b c4 bc ef c5 90 3d
       0.20879205 -0.01661036 -0.023953984 0.07069003
000060 2a 9e 29 3e 82 d3 c2 3d fe a6 42 bd 68 ac 26 3d
       0.16564241 0.09512998 -0.047522537 0.040691763
000070 95 b3 39 be 16 9a 09 3d 73 0d c9 bd e3 2c f8 bd
       -0.18134911 0.033594213 -0.09817018 -0.121179365
000080 81 da 0d be cd c3 0a be b3 82 43 bb 1c 5b fb 3d
       -0.13852884 -0.13551255 -0.0029832541 0.12273237
000090 37 5e de 3d ed 6b 23 3e 80 5e 01 be 80 b7 4b be
       0.10857814 0.15959139 -0.12633705 -0.19894218
0000a0 8f 4c 2f 3e 98 6a 55 3e 96 ca 13 be c0 13 ca bd
       0.17119049 0.20841444 -0.14432749 -0.09867048
0000b0 01 44 29 be 45 6a 30 3d a9 f2 81 3e 7e 8a 5f 3e
       -0.16529848 0.043070097 0.25380448 0.21830174
0000c0 6a 66 4b bd bb 80 01 be ea f0 25 be 99 5d b9 3d
       -0.049658217 -0.12646763 -0.16205183 0.090510555
0000d0 62 ba 91 bd 6c 7c 16 3e 0c d1 02 be 9a b9 35 bd
       -0.07115628 0.146959 -0.12775058 -0.044366457
0000e0 53 a5 59 3e 2e 26 0c 3e 77 6a 01 be 9a 92 38 be
       0.21254472 0.1368644 -0.1263827 -0.18024674
0000f0 96 06 c2 3d 00 05 d6 3d c5 15 7f b9 3b a0 70 be
       0.094739124 0.104501724 -0.00024326805 -0.23498623
000100 88 10 46 3e ba 00 93 3d 29 17 57 bd 95 e1 1d be
       0.19342244 0.07177873 -0.05251232 -0.15418084
000110 c1 67 0a be a6 7b 9e bd a3 19 55 bd 5a a6 c9 bd
       -0.13516141 -0.07738428 -0.052026402 -0.09846182
000120 97 9a 38 3d 81 bf 3b 3e a9 80 1f 3e 32 d3 87 3e
       0.045069303 0.18334772 0.15576424 0.26528317
000130 53 b0 f6 3d 6c 5a a3 bd 5d 79 87 bd 9a ae 87 be
       0.1204535 -0.07976231 -0.06614945 -0.26500398
000140 1c cd 52 3d 17 fb 41 3d ca ab a4 3c e5 13 fe bd
       0.05146514 0.0473586 0.020101447 -0.12406138
000150 05 0c a7 3d f7 d2 2c bd 25 ed 5f 3c ff 8d a2 bd
       0.081565894 -0.04219338 0.0136673795 -0.0793724
000160 dc 51 31 3e d6 a9 b4 3d 23 44 2e 3e a5 e8 97 bb
       0.17316383 0.08821456 0.1701818 -0.0046358877
000170 9b e2 a2 3d 58 01 eb 3d af 23 1a 3e b8 f7 d4 3d
       0.07953378 0.11474866 0.15052675 0.10398811
000180 dd 74 b0 3d 40 72 b7 3d ab 79 82 3e 24 22 84 bd
       0.0861604 0.08957338 0.2548345 -0.06451824
000190 08 3b 96 bd bf fc 2e 3e f2 ca 4d be b6 b6 67 be
       -0.07335478 0.17088602 -0.20096949 -0.22628292
0001a0 ff dd 93 bd b5 00 7b bd c8 7f 2b be 01 c5 41 be
       -0.07220077 -0.06127997 -0.16747963 -0.18922807
0001b0 3c f1 5c 3c b7 b2 00 3e b6 0e 02 3e 93 76 17 3e
       0.013485249 0.12568174 0.12700924 0.14791326
0001c0 f5 82 c9 3d 9e e2 91 3e 36 12 cb 3d 0c c1 37 3e
       0.09839431 0.28493208 0.09915583 0.17944735
0001d0 86 89 9e bd 7a 8e 4d 3e 21 79 5c 3e 87 1c 1b be
       -0.07741074 0.20073882 0.21530582 -0.15147601
0001e0 1b 40 bc 3d a4 23 88 be fe 4e bc bd 60 84 1c be
       0.09191915 -0.26589692 -0.09194754 -0.15284872
0001f0 88 35 80 bc bd 4d 16 bc 14 35 88 be 67 6a d8 bd
       -0.015650526 -0.009173808 -0.26602995 -0.1056717
000200 a6 db f9 3d f2 84 e1 3d 03 04 6d be 19 77 21 be
       0.12200098 0.110116854 -0.23146062 -0.15768088
000210 84 e0 da bd ac f4 22 be a3 f2 b2 bd fb 88 42 be
       -0.10687354 -0.15913647 -0.087376855 -0.18997566
000220 3a 42 7f be 2b ae 28 3d 54 a0 31 be 7b c6 dd 3d
       -0.24927607 0.041181725 -0.17346317 0.10828873
000230 ef 61 4b 3e c4 e1 a4 bc 7c 4d 25 3e ff 08 6b bd
       0.19861577 -0.020127185 0.16142839 -0.057381626
000240 44 ce 35 3e 08 c7 40 3e 0a 16 02 3e 0a 81 27 3e
       0.17754465 0.18825924 0.1270372 0.16357818
000250 fc ad 98 bc fd ff af 3d f9 00 c6 3d ed cf 82 3d
       -0.01863765 0.08593748 0.09668154 0.06387315
000260 7d 1a 5f 3e fd 2e 62 bd 3f 59 87 3d 0e a6 ab bd
       0.21787448 -0.055220593 0.06608819 -0.08381282
000270 35 f7 39 3e a7 2f 66 3d 95 f2 33 3e 6d d2 6e 3d
       0.18160708 0.05619779 0.17573006 0.058306146
000280 a0 67 32 be dc 98 3f be 86 b2 96 3e 63 97 12 3e
       -0.17422342 -0.18710655 0.29433078 0.14315562
000290 93 f2 76 3c 58 73 46 bd 33 83 54 bd cf c3 89 bc
       0.015072483 -0.048449844 -0.051882934 -0.016817002
0002a0 92 0a 1c 3e 2b f0 36 3e bf 7a 2a 3d 86 29 49 3d
       0.15238407 0.17865054 0.041620966 0.049111865
0002b0 8a f6 a9 bd 1e 10 41 3e 0a 28 23 3e 81 37 a6 3d
       -0.08298977 0.18853804 0.15933242 0.08116055
0002c0 23 c4 8b 3d 3f 1f 81 3d 05 23 c8 bd 75 51 f5 bd
       0.068245195 0.06304788 -0.097723044 -0.11978427
0002d0 66 62 26 3e 57 a9 f4 bc ee fe 3c bc 03 8f ee 3d
       0.16248474 -0.029865904 -0.011535389 0.11648371
0002e0 bd 87 21 3e 02 a4 5e bd 6b f6 1c be 33 84 97 be
       0.15774436 -0.05435563 -0.15328376 -0.29593047
0002f0 97 c5 06 be 81 3c 36 3e 18 97 3f 3e 9b fe b3 bd
       -0.13161312 0.17796518 0.18709981 -0.087887965
000300 cf 58 0b be f6 e4 17 3e c5 8b 42 3e b9 63 e2 3c
       -0.13608097 0.14833435 0.1899863 0.027635442
000310 8d 98 98 bd 6c 4f 43 be 15 db e8 3d 4c 32 be bd
       -0.07450972 -0.19073266 0.113699116 -0.09286937
000320 a7 e4 68 be d5 25 7a be a5 1c 3a be 13 99 80 3e
       -0.22743474 -0.24428494 -0.1817499 0.25116786
000330 cc 80 3b 3c 6d 40 ed 3d 39 bf b4 bd a8 90 2a 3e
       0.011444282 0.11584554 -0.08825535 0.16656744
000340 1b bd 91 3d 8f e9 d4 3b ac d3 81 3d 38 5b 06 be
       0.07116147 0.006497569 0.06339201 -0.13120735
000350 f3 60 5d 3e 93 ba 8e bc 69 4d 93 bd 48 68 50 be
       0.21619014 -0.01742295 -0.07192499 -0.2035228
000360 81 f5 1d 3e e3 c2 44 3e f8 7a 33 3d 31 3e c0 bd
       0.15425684 0.19214968 0.043818444 -0.09386862
000370 e1 5d 2e be 6e 4f 45 3e 29 28 29 bd 94 06 ff b8
       -0.17028 0.19268581 -0.041298065 -0.00012160573
000380 ea bc 22 3d f1 6e 90 be b1 94 5c 3d 4f aa 83 3d
       0.039730944 -0.28209642 0.05385274 0.06428968
000390 9c 28 56 be da 41 99 3d 0c 47 47 be 10 79 3f be
       -0.20913929 0.07483263 -0.19460696 -0.18698525
0003a0 7e fe 08 3e 65 ce cf 3d 6e ac 62 be ff c7 54 3e
       0.13378331 0.101467885 -0.22136089 0.20779417
0003b0 48 60 3f 3e 87 84 8f bd 2e be 24 bd 4d b6 49 3e
       0.18689072 -0.070076995 -0.040220432 0.19698448
0003c0 d1 47 5d 3d 53 f4 ef 3d 10 6d 29 3e c7 35 28 be
       0.054023568 0.11716523 0.1654551 -0.16426764
0003d0 43 60 5b bd 2d 3c 45 be 6d d5 01 be 07 a5 1b 3e
       -0.0535586 -0.19261236 -0.12679072 0.15199672
0003e0 a4 a4 3e bd 12 ad 6a bd b0 07 26 3e 2a 4b 47 3e
       -0.046543732 -0.05729396 0.1621387 0.19462267
0003f0 93 96 00 3d 40 63 f7 bd 03 d2 8b 3d 4f 1a d0 bc
       0.0313936 -0.12079477 0.06827166 -0.02540317

conv1.bias f4 [20]
000000 9e 1a ac 3d 61 a0 7a be cc 2b 64 be 6e e6 ec bd
       0.08403514 -0.24475242 -0.22282332 -0.115673885
000010 49 50 c8 3d 88 ee 21 3e e0 f4 a1 be 13 b0 41 be
       0.09780938 0.15813649 -0.31632137 -0.18914823
000020 60 b3 0e be e0 60 22 bd e1 08 a1 be 9b 87 21 be
       -0.13935614 -0.03964317 -0.31452087 -0.15774386
000030 47 f9 f8 bc 59 8f b1 be 89 a6 df 3c 78 eb 66 bd
       -0.030392302 -0.34679678 0.02730109 -0.056376904
000040 df 84 1b bd cf 70 f5 bd 3c 8b e1 bd ef 6b ec 3d
       -0.037968513 -0.11984407 -0.11012885 0.11544024

bn1.weight f4 [20]
000000 4d b6 2c 3f fa 15 83 3f 91 15 9a 3f 60 d8 4d 3f
       0.6746567 1.0241082 1.2037832 0.8040829
000010 79 3b 97 3f cd 55 83 3f bf 74 82 3f 94 2b 91 3f
       1.1815025 1.0260559 1.0191878 1.1341424
000020 2f 43 61 3f 70 2f 72 3f 3c 15 4b 3f 11 b7 6b 3f
       0.8799314 0.94603634 0.79329276 0.9207621
000030 77 00 87 3f a4 83 6e 3f a1 c3 66 3f d2 d5 5e 3f
       1.0547017 0.9316962 0.90142256 0.87045014
000040 b6 28 8a 3f 40 b4 62 3f aa 6b 84 3f 7b 6f 94 3f
       1.0793674 0.8855629 1.0345356 1.1596521

bn1.bias f4 [20]
000000 2b d8 b0 3e 11 54 21 3e cf 6d 49 3e 96 b0 9b 3e
       0.34539923 0.15754725 0.19670795 0.30408162
000010 ca 8e 16 3e aa 3c 6b 3e 6f 9c 96 3e c2 0a 97 3b
       0.14702907 0.2297236 0.29416224 0.0046094367
000020 f6 3b 67 3e 62 31 b3 3d 7b 2e b8 3e fd b9 6c be
       0.22581467 0.087496534 0.35972962 -0.23117824
000030 b5 0b b2 3e 94 71 a7 3e 74 f9 59 bd 85 23 af bc
       0.34774557 0.3270384 -0.053216413 -0.021379242
000040 0e d5 73 3d 42 79 e5 3d 51 77 f0 bd 51 24 ce 3d
       0.059529357 0.11204769 -0.11741508 0.100655206

bn1.running_mean f4 [20]
000000 cb 22 11 3e e2 08 22 3e d3 28 39 3d 00 22 42 3d
       0.14173429 0.15823701 0.04520495 0.047395706
000010 f8 12 66 3e 52 5e 15 3f fd 9a 4c 3d bb 5a a5 3d
       0.22468174 0.58347046 0.049952496 0.08073946
000020 88 d6 09 3e ec fd 98 3e 79 4a ce 3c bd 26 39 3f
       0.13460743 0.29881227 0.025181996 0.72324735
000030 1e b0 02 3e 04 9a 34 3d 76 43 02 3f 92 37 f2 3e
       0.12762496 0.044092193 0.5088419 0.47308022
000040 66 ff 9b 3e bf 7b 38 3d ec 13 dd 3e 81 61 27 3e
       0.3046829 0.04503989 0.43179262 0.16345789

bn1.running_var f4 [20]
000000 c2 d6 41 3d 6a 1b ab 3d 73 fa 28 3c 0d 71 e0 3c
       0.04732395 0.08354838 0.010313618 0.027397657
000010 f0 ad 2f 3d ae 2d e5 3d d2 5b 1e 3d de d1 bf 3c
       0.04289049 0.11190353 0.038661785 0.023415502
000020 51 db 8f 3d 59 9c 05 3d 96 b1 5b 3c 1f 63 52 3e
       0.07024253 0.032619808 0.013409039 0.20545624
000030 e0 dd 74 3d b1 1a be 3c 93 6a 50 3e 41 0b 03 3e
       0.05978191 0.023206087 0.20353155 0.12797262
000040 fe d3 5a 3d 8a 23 27 3c a7 12 05 3e c7 d7 31 3d
       0.053424828 0.010201344 0.12995397 0.043418672

conv2.weight f4 [50, 20, 5, 5]
000000 13 4e 1f 3d eb ad ff 3c ff 8a a3 3b 4b 6a 8b 3c
       0.038892817 0.03121086 0.004990935 0.017018458
000010 e2 1b 91 bc b8 f5 dd 3d 7b 31 b3 3c b3 3a b3 bc
       -0.01771349 0.10837883 0.02187418 -0.021878576
000020 5a fc 1d 3d d0 a3 05 bc 8d 90 66 bd 14 40 19 be
       0.03857074 -0.008156732 -0.056290198 -0.1496585
000030 92 af fd bd 3b 5b 77 bc a2 53 cd bc 2a 5a 25 be
       -0.12387003 -0.015097435 -0.025064293 -0.16147676
000040 6c d3 93 bd 99 2e c1 bc e3 9e fa 3c c1 5c 4a bd
       -0.0721806 -0.02358179 0.030593341 -0.049404863
000050 75 88 2d bd f3 5b de bb a6 da 77 3d 60 82 34 3d
       -0.042366464 -0.0067858635 0.060511254 0.044069648
000060 d2 82 b9 bd e0 d6 8c bd bf 2c 8d 3d 19 32 7d bb
       -0.09058155 -0.06876922 0.068933 -0.0038634597
000070 f3 aa 7c be a7 ca ed bd 51 bc 9e bc 3a ff 22 3d
       -0.24674587 -0.116109185 -0.019376906 0.039794184
000080 fe f2 96 bd 9e 3b 31 be 85 6e 7b bd 03 8a c4 39
       -0.07370566 -0.17307898 -0.061384697 0.0003748686
000090 a4 0d 14 be 93 36 d9 bd b1 d7 d0 bd cd 4a 80 bd
       -0.14458328 -0.10606112 -0.1019739 -0.06264267
0000a0 30 b5 52 3d 8c d2 39 3d 5c a2 ca bd 84 6b f8 bc
       0.051442325 0.04536681 -0.09894249 -0.030324705
0000b0 c9 29 a2 3c bd 56 8d bc b1 7a e6 3c b7 65 05 be
       0.019795315 -0.017253274 0.028134676 -0.13027082
0000c0 d9 d4 66 bd 2f a0 87 3c 16 d9 e0 3d f7 e1 8c 3d
       -0.05635533 0.016555874 0.10978906 0.06879037
0000d0 c5 fb 12 3d 0d 02 cf bd 85 cc 5e be c9 00 5d bd
       0.035884637 -0.10107813 -0.21757706 -0.053955827
0000e0 2f 03 06 3e 4e dc ae 3c ee 93 8b be d7 b8 07 be
       0.13087152 0.021345284 -0.272613 -0.13254105
0000f0 80 89 b6 bc bc 3c a5 3c 9e 0d 07 bd aa a3 00 be
       -0.022282362 0.020170562 -0.03297197 -0.12562433
000100 0c ca 6d bd 9e c6 0d be 11 c4 7b bd ed c0 8a bd
       -0.058054015 -0.13845298 -0.06146628 -0.06775079
000110 d6 24 f3 bd 17 9c f3 bd ce f3 de bd 88 b9 0a bd
       -0.1187226 -0.11895006 -0.10886346 -0.033868343
000120 73 ff c0 3d b8 1a 29 3d e3 3e a3 bc 0f 49 86 3d
       0.09423723 0.041285247 -0.019927448 0.065569036
000130 e5 34 c0 bc b6 be bc bd 47 85 b7 bd a9 96 f3 bc
       -0.023462722 -0.09216063 -0.089609675 -0.029734926
000140 7c c1 a2 3d 0b d9 3b bd 5b 83 51 bd 96 3e c6 bd
       0.079470605 -0.045861285 -0.05115066 -0.09679906
000150 62 4d f9 3c 1e 2d 5b 3d 40 24 63 bd 4d d0 23 bd
       0.030432407 0.053509824 -0.055454493 -0.039993573
000160 c7 e9 e9 3a fc 36 09 3c ba 8d d2 bc f0 9d b8 bd
       0.001784616 0.008374926 -0.025702346 -0.09014499
000170 e3 56 9e 3c 64 70 f4 bc 9e 2c 99 3d 1c 1f e2 bc
       0.01932854 -0.029838748 0.07479213 -0.027602725
000180 6a 5c 2f 3c aa af 47 3d 41 3a 21 bd 6a 70 b8 3c
       0.010703186 0.04875151 -0.039362196 0.02251454
000190 79 a6 bf 3d 3b b3 f8 3c 2c 6f 97 3d ff 85 0a bd
       0.09357924 0.030358901 0.07394251 -0.033819195
0001a0 b8 7f 9b bd e9 b6 9a 3d 28 87 7c bc c4 4d 05 3d
       -0.0759272 0.075544186 -0.015413083 0.032544866
0001b0 22 cc f9 bd 41 14 ba bd f6 0d 48 bd 3f 39 89 bd
       -0.12197138 -0.090858944 -0.04884144 -0.06700372
0001c0 9c 3d c7 bd 0b 6e 28 be 34 c6 7e 3d ce 70 ec bc
       -0.09728548 -0.16448228 0.06220074 -0.028862383
0001d0 7b 6e 90 bc e0 1e 27 bd e2 4d 18 bc 2a 38 b6 bc
       -0.017630806 -0.04080093 -0.009295912 -0.022243578
0001e0 43 d9 3f be b1 b6 c6 3b 2f 1b 93 bd c2 95 c6 bb
       -0.18735223 0.006064259 -0.07182919 -0.006060333
0001f0 7d e8 ea 3c 7e ec 54 3d c7 5a bd 3d 15 07 fb 3d
       0.028675312 0.05198335 0.0924583 0.1225721
000200 b2 1b 95 3d ac 2a 7a 3d 6b ff 5a 3d 43 2c 95 bd
       0.07280673 0.06107585 0.05346624 -0.07283833
000210 33 4e 85 bd 15 d6 f2 bc 4b a2 a9 bd 47 bd e0 bb
       -0.06509056 -0.029643098 -0.08282908 -0.006858501
000220 cd 6a 5e be c4 44 af bd 5c 32 a1 bd 4c 86 80 bd
       -0.21720429 -0.08558038 -0.078709334 -0.06275615
000230 7a d0 eb bd 21 4e 44 bd af a2 c0 bd 05 73 a6 bd
       -0.11514373 -0.047926072 -0.094060294 -0.08127407
000240 7c 7d 48 bd 07 ed 5c bd d5 7f 53 bd f5 9e 63 3d
       -0.048947796 -0.053936984 -0.051635582 0.055571515
000250 3b 98 2b bd f9 a6 43 3b c2 ef e9 bd 5a 60 01 be
       -0.041893225 0.0029854162 -0.11422683 -0.12634411
000260 e3 e4 fb bd 31 59 d2 bd 18 fe c4 bd bc 3b 0a be
       -0.12299516 -0.10270918 -0.09618777 -0.1349935
000270 93 1a 06 be b7 f7 ca bd 00 2a 00 3c f7 43 96 bd
       -0.13096075 -0.09910529 0.007822514 -0.07337182
000280 06 0c fb bd 96 90 22 be 2a db 2e 3d 40 b2 b0 3d
       -0.12258153 -0.15875468 0.04268948 0.086277485
000290 f1 d3 74 3d 57 2d 17 be 5e 77 21 be 01 38 89 3d
       0.059772436 -0.1476339 -0.15768191 0.06700135
0002a0 cb 71 00 3e 21 38 18 3d b4 d6 ea bd c2 d9 c7 bd
       0.12543409 0.037162904 -0.114667326 -0.09758331
0002b0 c8 20 9a 3d 3d d1 3c 3d 96 02 30 3d dc 49 5c 3d
       0.07525784 0.046097983 0.042971216 0.053781375
0002c0 43 19 af bd c0 38 e1 3d 3e 95 14 be ce e4 88 3c
       -0.0854974 0.10997152 -0.14510056 0.016710665
0002d0 47 b1 fa 3c 9b 6c 88 3d 5d 10 98 3d b9 e3 74 bd
       0.03060211 0.0666134 0.07424996 -0.059787486
0002e0 8d 13 99 bc 55 b7 09 bd cd 06 a6 3d 42 a1 91 3c
       -0.01868608 -0.033622105 0.08106766 0.017777089
0002f0 31 5f df bd 1f 1f fe 3c 88 57 40 bc af f8 bb 3d
       -0.10906828 0.0310207 -0.011739619 0.09178292
000300 9f d0 61 3d 77 c1 a5 bd bc 77 30 bd 6f 1e 20 bd
       0.055130597 -0.08093541 -0.043082938 -0.039091524
000310 44 5c 67 bd 79 0c 94 3d 78 07 a7 bc f5 fc 86 3d
       -0.056484476 0.072289415 -0.020389304 0.065912165
000320 1b 27 f5 bd 29 50 f9 3d 72 3e c2 bd c8 e1 bd 3d
       -0.119703494 0.121734925 -0.09484567 0.0927158
000330 da 59 5b 3d 3d 6e 9c bb 7f 14 c5 3c 62 c5 d9 bc
       0.053552486 -0.0047738836 0.024057625 -0.026583377
000340 79 5f 95 3d 89 df ab bd 26 d3 1e bd 4e 8e fc bc
       0.072936006 -0.08392245 -0.038775586 -0.030829575
000350 f6 95 23 3c 88 4f a6 b9 63 e6 fc bd 76 00 92 bd
       0.009984484 -0.00031721243 -0.1234863 -0.07128994
000360 d2 2c 8a bc 61 b6 0b bc 3e 1d 4e bc 2e 8b b6 bd
       -0.016867075 -0.008527369 -0.012580214 -0.08913265
000370 46 b1 68 3d db a5 29 3c 6b c5 2d bd 90 ef db 3c
       0.056809686 0.010354484 -0.0424246 0.02684763
000380 28 6c a0 3c cb d8 9f 3d fd 34 5b 3e af 19 1d 3d
       0.019582823 0.07805022 0.21406932 0.038354572
000390 03 de 6a bd 56 f4 82 bc a9 57 45 ba a3 61 0c 3e
       -0.057340633 -0.01598565 -0.0007528016 0.1370912
0003a0 f6 80 65 bd de 95 e3 bd 59 09 21 be 23 57 7c 3d
       -0.05603119 -0.11112569 -0.15726222 0.061606538
0003b0 01 11 a5 3d 2b 6b d8 bd f7 31 38 bb 84 03 26 be
       0.08059884 -0.10567316 -0.0028105953 -0.16212279
0003c0 60 72 ff bc 75 af 94 3d 1c a6 a1 bc 0b 05 7c 3c
       -0.031182468 0.07260028 -0.019732527 0.015382062
0003d0 04 83 46 bd 8f 84 64 bd fc 96 8a 3d d3 7e 0e 3d
       -0.04846479 -0.05579048 0.06767079 0.034788918
0003e0 7b 74 91 b9 0d 82 89 bd a2 c0 b2 bb 36 9c cd bb
       -0.0002774334 -0.06714258 -0.0054550925 -0.0062747253
0003f0 75 83 08 be ae 74 9d bd 52 fd e8 bc 66 53 95 3d
       -0.13331397 -0.076882705 -0.028441105 0.072912976

conv2.bias f4 [50]
000000 22 c6 90 be 86 77 ff 3c 49 ab 63 bc b1 00 53 bd
       -0.28276163 0.031184923 -0.013895818 -0.05151433
000010 31 49 8b bd cc b6 3a be 2f 19 df bb 44 9f 05 3d
       -0.068010695 -0.18233794 -0.006808422 0.03262259
000020 e5 04 a1 bd b1 63 7c 3d ac 45 10 be 50 06 86 bd
       -0.07862262 0.06161851 -0.14089078 -0.06544173
000030 8a e3 ee bd ff cf 00 be 56 b4 dd bd 47 cb d9 bc
       -0.116644934 -0.12579344 -0.10825412 -0.026586188
000040 8a 46 09 3d 0d e9 98 ba 21 fa 59 be 51 dd 6d be
       0.033514537 -0.0011666134 -0.21286823 -0.23228957
000050 45 16 2b be 1b 24 9e bd 7d 2f d5 3c e4 07 85 bd
       -0.16707714 -0.0772173 0.02602362 -0.06495646
000060 76 3b 49 be 3d 75 be bc 47 8e b2 ba a2 fe 24 be
       -0.19651589 -0.023249263 -0.0013622724 -0.1611276
000070 d9 8f eb bc 05 9f 1f bc 36 fa ae bc df 00 05 bd
       -0.028755115 -0.009742503 -0.021359544 -0.032471534
000080 45 91 53 3d b9 5b 04 be bc 81 c6 bd db d8 8c bd
       0.05165221 -0.12925614 -0.096927136 -0.068772994
000090 8e 3f 58 be 4d c7 a4 3a 3c 49 0c be 89 58 d5 bd
       -0.21117994 0.0012571603 -0.13699812 -0.10417277
0000a0 d1 8d 3c 3c f9 e6 9e bd d8 3f ca bd 74 a8 58 bd
       0.011508421 -0.07758898 -0.098754585 -0.052895024
0000b0 1f 6e f8 bd c1 19 16 be 58 4e 7a 3d c2 0a ad bd
       -0.12130379 -0.14658262 0.06110987 -0.084493175
0000c0 5a ca bc bd de 49 74 bd
       -0.09218283 -0.059640758

bn2.weight f4 [50]
000000 2c 1b 74 3f ef 1a 7d 3f ba 12 6f 3f f1 3c 81 3f
       0.9535396 0.9886922 0.9338795 1.0096723
000010 c2 a5 83 3f 8e 6e 89 3f dd dd 99 3f 69 91 89 3f
       1.028496 1.0736864 1.2020832 1.0747501
000020 aa 90 7c 3f f1 44 80 3f bf 39 84 3f 47 aa 80 3f
       0.9865824 1.0021039 1.0330123 1.0051965
000030 58 69 8c 3f 55 90 65 3f 3f c0 7f 3f cf 7d 70 3f
       1.0969648 0.8967336 0.9990272 0.9394197
000040 a8 c0 65 3f 78 2f 6a 3f ee 2b 7f 3f 17 0b 7d 3f
       0.89747095 0.9147868 0.99676406 0.98845047
000050 d2 d9 8d 3f 94 e9 83 3f 73 f8 80 3f 5e 6f 62 3f
       1.1082098 1.0305657 1.0075821 0.8845118
000060 37 b3 6d 3f 50 35 7d 3f 35 42 62 3f d1 24 97 3f
       0.92851585 0.98909473 0.88382274 1.180811
000070 08 f0 69 3f c8 9a 84 3f c0 b4 61 3f 22 8c 84 3f
       0.91381884 1.0359735 0.8816643 1.0355265
000080 c0 a6 59 3f c6 7d 8c 3f 2b 8c 8a 3f 62 76 6c 3f
       0.85020065 1.0975883 1.0824026 0.9236814
000090 a2 1e 84 3f 0d d4 8f 3f 38 0d 8a 3f e6 95 7f 3f
       1.0321848 1.1236588 1.0785284 0.998381
0000a0 f0 15 72 3f e3 e8 62 3f bb 45 78 3f a7 76 77 3f
       0.94564724 0.88636607 0.969814 0.96665424
0000b0 9e ab 8a 3f 04 46 46 3f 5b 26 91 3f cb ad 5c 3f
       1.0833623 0.77450585 1.133983 0.8620269
0000c0 f2 43 81 3f 74 bb 7c 3f
       1.009886 0.9872353

bn2.bias f4 [50]
000000 98 f2 18 3e 30 46 8a bd 16 61 17 3e c7 02 10 3d
       0.14936292 -0.067516685 0.14783129 0.0351589
000010 da a8 39 3e 9e 5a b3 3d af a7 18 3d 3a 96 76 bd
       0.18130818 0.08757518 0.03726929 -0.06020186
000020 16 aa 8c bd 92 ee 55 bd 93 bb 13 3e ea 65 9c bb
       -0.06868379 -0.05222947 0.14427023 -0.0047728913
000030 3c e4 c7 bc db 5e e7 3d be b1 0a 3e 23 69 36 bd
       -0.024400823 0.11297389 0.13544366 -0.04453386
000040 34 6d 59 3e 2b a8 eb 3d 53 1b 02 bd 51 8c fe 3c
       0.21233064 0.11506685 -0.03176434 0.031072767
000050 c3 db 89 3d 77 65 62 3d 70 29 f0 bd aa b5 b7 3d
       0.06731369 0.055272546 -0.117266536 0.089701965
000060 7d 31 9a 3d 20 db 6a 3e d3 17 08 3e 67 31 b9 bd
       0.075289704 0.22935152 0.13290338 -0.09042626
000070 ef 46 c5 3c 7e 83 d1 3d 29 83 0a 3e ba 1f 54 3d
       0.024081675 0.10230158 0.13526596 0.05178807
000080 b2 bb 00 3e f4 ee be 3d 39 bf 03 3e 75 b5 62 3d
       0.125716 0.093229204 0.12865914 0.055348832
000090 0c f9 0e 3e f8 3d cc 3d cc 67 9d 3d cd 6b c6 3d
       0.13962191 0.09972757 0.07685813 0.0968853
0000a0 52 01 30 3d 7f 8f a8 3c 22 5a 58 3c c7 5c fb 3c
       0.04297001 0.020576237 0.013205083 0.030683888
0000b0 33 8a d0 3d c5 a7 fb bc 9a 81 a4 3d fa 10 4f 3c
       0.101826094 -0.030719647 0.08032532 0.012638325
0000c0 b8 1b 39 bd e0 0b 69 3d
       -0.04519245 0.05689609

bn2.running_mean f4 [50]
000000 37 d6 a0 3f 34 aa 84 40 03 06 3f 40 b3 f9 84 40
       1.2565373 4.1457767 2.984742 4.155481
000010 0b 71 0d 40 be c0 94 3f f9 ac 88 40 5d 64 19 40
       2.2100246 1.162132 4.271115 2.3967507
000020 65 48 be 3f 2b d7 85 40 22 ad 84 3f 66 6e 9f 3f
       1.4865843 4.1825156 1.0365336 1.2455566
000030 e6 68 66 40 08 b6 a9 40 6e d8 e6 3f 64 66 8d 3f
       3.6001525 5.3034706 1.8034799 1.1046872
000040 8f cb 67 40 5a f5 89 40 7d 06 f3 3f e6 3c c9 3f
       3.6217992 4.3112 1.8986355 1.572171
000050 99 c7 71 40 ec 66 c0 3f 1d d7 1e 40 cb 00 60 40
       3.7778075 1.5031409 2.4818795 3.5000484
000060 68 9d 8e 3f b2 71 01 40 71 bf da 3f 0a c7 13 40
       1.1141787 2.0225644 1.7089673 2.3090234
000070 8c 6a cd 3f 77 a4 d0 3f 9c 83 b9 3f e1 45 e1 3f
       1.604814 1.6300191 1.4493289 1.759945
000080 31 34 57 40 75 68 93 40 94 82 94 3f 6e 03 02 40
       3.3625605 4.606501 1.1602349 2.0314593
000090 7f e0 f4 3f dc 48 29 40 b4 f0 7b 40 15 cb 89 3f
       1.9131011 2.645072 3.9365664 1.0765101
0000a0 3b d5 74 3f a9 70 e3 3f eb 8e ec 3f a1 9d a6 3f
       0.95637864 1.7768756 1.8481115 1.3016855
0000b0 ff c1 83 40 e2 e3 ff 3f 52 f3 2e 40 4d 0e 55 40
       4.117431 1.9991419 2.733601 3.3289979
0000c0 25 c8 f2 3f ce 25 75 40
       1.8967329 3.8304324

bn2.running_var f4 [50]
000000 77 06 80 40 7d 3f 32 41 c6 e8 54 41 fb 49 66 41
       4.000789 11.1405 13.306829 14.393062
000010 33 ed d2 40 7b 21 7f 40 f7 8f 83 41 60 ae 04 41
       6.591455 3.9864185 16.445295 8.292572
000020 3d 35 8b 40 d8 c1 59 41 21 34 33 40 a7 de 77 40
       4.350249 13.609825 2.8000567 3.8729646
000030 8d 9c 2a 41 ca 39 f8 41 33 3e b3 40 ba 18 50 40
       10.66322 31.028217 5.6013427 3.2515092
000040 f8 d9 81 41 8e 13 46 41 d7 c3 cf 40 87 ad 96 40
       16.23143 12.379774 6.492656 4.7086825
000050 3d 54 a2 41 bd 11 b7 40 86 13 df 40 4c 72 4d 41
       20.291132 5.7209153 6.971133 12.8404045
000060 6b bf 3d 40 fb bb dd 40 97 2b d7 40 bc 84 c5 40
       2.9648082 6.929197 6.724071 6.172453
000070 2d b8 c7 40 53 2b b4 40 f2 2f ac 40 2d 6a 9b 40
       6.2412324 5.6302886 5.3808527 4.856711
000080 08 90 48 41 ad 70 51 41 2a 2d 77 40 19 9b d5 40
       12.535164 13.090009 3.8621316 6.675183
000090 fd a3 02 41 af 78 eb 40 c4 80 af 41 bc f0 3d 40
       8.165036 7.358482 21.937874 2.9678183
0000a0 d4 68 46 40 44 69 c2 40 b0 6e c5 40 fb 9f 9c 40
       3.1001482 6.07535 6.1697617 4.894529
0000b0 6a fd a1 41 6e 7c bd 40 38 2b ee 40 20 0a 2f 41
       20.248737 5.921439 7.4427757 10.939972
0000c0 31 db b9 40 9d 1d 47 41
       5.808007 12.44473

conv3.weight f4 [100, 50, 3, 3]
000000 ba 6c 07 3e a9 63 3e 3e 18 b4 02 be c4 c0 77 3d
       0.1322507 0.18592705 -0.12764013 0.06048657
000010 31 5c 4a 3b 88 b6 98 bd 59 f4 b9 bd e4 5f 1c be
       0.0030877704 -0.0745669 -0.09079809 -0.15270954
000020 29 5b 69 3d f8 6f 34 3d c6 63 e6 bc b3 4d 50 ba
       0.056971703 0.044052094 -0.028123748 -0.00079461484
000030 53 fb 41 3d 6b 25 d7 bd fa 8d be 3d 73 76 46 bc
       0.047358822 -0.10505184 0.09304424 -0.012113201
000040 47 37 28 3e 9b a5 81 3d fb d2 35 3e 9e b9 46 bc
       0.16427337 0.06330415 0.17756264 -0.0121292155
000050 c2 4c 34 3d 89 bd e6 3c 01 68 a5 3d fc 0d ca 3d
       0.044018514 0.02816655 0.08076478 0.098659486
000060 1e 97 20 be 23 a6 c2 3c 46 52 42 bc ee 30 5b 3d
       -0.15682647 0.02376086 -0.011860436 0.05351346
000070 f2 ed 29 3d ea 24 94 3d 04 c6 37 bd 4d 52 09 3e
       0.041486688 0.07233603 -0.044866577 0.13410302
000080 7d 4f 97 3c 8a 4f c9 3d da 0f bf 3d ae 20 40 3d
       0.01847052 0.09829624 0.09329195 0.046906166
000090 b9 04 c0 3d 6e 55 35 bd 7d f3 23 3e 04 4a e7 bb
       0.09375901 -0.044270925 0.16010852 -0.007058384
0000a0 e4 f4 11 3d 07 04 44 be 16 56 2a 38 9a 6e 45 bd
       0.035633937 -0.19142161 4.0611332e-05 -0.04820118
0000b0 a5 03 ec bd a3 54 33 3e 91 4c 41 bd ef 1a 7e 3c
       -0.11524133 0.17512755 -0.04719216 0.015509351
0000c0 70 23 14 3e ff 7f 93 3d 2b 14 71 3c 5b b3 85 bc
       0.14466643 0.07202148 0.014714281 -0.016320875
0000d0 33 bc 3c bc 0c 79 27 3d 65 e7 a8 bd 9d 50 6e 3e
       -0.01151948 0.040886924 -0.0824726 0.23272939
0000e0 bb db d0 3d 68 27 62 3b 38 40 14 be 71 d6 a1 bd
       0.1019816 0.0034508351 -0.14477623 -0.079022296
0000f0 ec 31 f2 3d 58 5d d0 bd 89 d7 ec bd 97 78 bb bd
       0.11825928 -0.10174054 -0.115645476 -0.0915386
000100 0b 66 f2 bd 7c 4b f7 bc 55 30 f4 bd eb 21 1f 3e
       -0.118358694 -0.030187361 -0.11923281 0.15540282
000110 e4 b8 88 bc 16 e8 56 bd 2d 96 38 3c cf 7b ae 3d
       -0.016689725 -0.05246743 0.011266273 0.08519708
000120 f4 d4 ec bd f6 ee 10 be 13 fb a4 3c 2c 8e fd 3b
       -0.11564055 -0.14153656 0.020139253 0.0077378955
000130 e0 40 92 bb b9 49 12 3d ae 18 1c 3d 1b c2 5f bd
       -0.0044633 0.03571484 0.038109474 -0.054628473
000140 e6 b8 bf 3b 0c 41 ef 3d 6b fa 03 bd d4 32 d7 3c
       0.005850899 0.116823286 -0.03222124 0.026269354
000150 28 ec 75 3d d8 ca a6 bd d2 d8 ff 3b 9a 37 00 bb
       0.06003967 -0.08144158 0.0078078294 -0.001956439
000160 5d 26 ad 3c bf cd 75 3b b3 9e bf 3d 96 43 fd bb
       0.021136457 0.0037506667 0.09356441 -0.007729004
000170 c7 55 1b 3d fa a9 ec b8 5b 80 a0 3c 5a 92 d4 3d
       0.0379236 -0.000112850175 0.019592455 0.10379477
000180 43 5d b6 bd e8 92 84 3b 4f 55 7b bd a7 39 93 bc
       -0.08904507 0.004045833 -0.061360653 -0.017971827
000190 9c fe 04 3e bb ed a3 bd 70 60 47 bd 6b 71 b8 3c
       0.12987751 -0.08004328 -0.048675954 0.02251502
0001a0 d7 f4 54 bc 21 f4 0f bd 01 c1 b1 3d 12 53 6f bd
       -0.0129978275 -0.03514493 0.08679391 -0.05842883
0001b0 ed 45 25 3e b5 73 88 3c 25 4b 07 be c4 a8 de 3d
       0.16139956 0.016656736 -0.13212259 0.10872033
0001c0 b5 b5 d4 3d de 0a 2d 3d 30 d3 98 3d 36 f2 29 3d
       0.1038622 0.042246692 0.07462156 0.041490756
0001d0 ee 39 00 3e 62 7b 80 3d 5d 12 c7 3d fd 34 2e 3e
       0.12522098 0.062735334 0.097202994 0.17012401
0001e0 55 03 dc bb 3f 14 86 bd 4d 3c ab bb 2e 5b ee 3c
       -0.0067142644 -0.065468304 -0.0052256943 0.029096212
0001f0 37 6f 25 3d ec 43 b6 3d cf 44 bb 3c 1d 39 ec 3c
       0.040389266 0.08899674 0.022859959 0.028835827
000200 7f 51 05 3e ad 12 a3 bd 3a d4 e8 3a ac 3e 6b 3d
       0.1301937 -0.079625465 0.0017763444 0.057432815
000210 f9 23 2f 3d e7 b6 5c 3b 6f 94 81 bd d0 d4 14 3e
       0.042758916 0.0033678354 -0.063271396 0.14534307
000220 f6 d6 ec bd d2 15 8b 3c 3f 14 21 bd 53 40 9b 3c
       -0.11564438 0.016978178 -0.03932595 0.01895157
000230 53 c1 58 bd f1 58 95 3d ad 00 3f bd 69 f1 3e bd
       -0.052918743 0.07292355 -0.046631504 -0.046616945
000240 19 67 f1 3d 1b 69 2d 3d 17 26 46 3d 96 7d 6f 3d
       0.117872424 0.042336565 0.04837617 0.058469377
000250 23 09 d5 bd e1 b3 fd 3b 4e f2 4a bd 86 83 a5 3d
       -0.10402133 0.0077423905 -0.049547486 0.08081727
000260 f1 63 8e bc 3a c4 a4 bc 58 6b 0c be 2d d8 ff 3d
       -0.01738164 -0.0201131 -0.13712823 0.12492404
000270 60 7e c9 bd 5c 57 f2 bb b7 26 87 3d 26 0a 70 bd
       -0.09838557 -0.007395668 0.06599181 -0.05860343
000280 ff 5a 86 3d 79 2a 8f 3d c2 0a ef bd c7 69 1c 3e
       0.06560325 0.06990523 -0.11671974 0.15274726
000290 1e 24 1c 3e 49 7a 52 bd 79 63 66 bd 5d 96 fd 3d
       0.15248153 -0.05138615 -0.05624721 0.12382195
0002a0 62 99 e8 3b 64 cc d6 bd 80 39 c8 3d 47 1f d3 bd
       0.007098363 -0.10488203 0.09776592 -0.103087
0002b0 70 aa 67 3d 53 8f 60 bc b4 7a 7c 3d f7 39 1b be
       0.056559026 -0.013706046 0.061640456 -0.1515883
0002c0 ef e6 4b bc 61 07 b7 ba 7b 0c 73 bd 12 d6 85 3d
       -0.012445196 -0.0013963991 -0.059338074 0.06534971
0002d0 b5 07 eb bc 65 ed 00 3e be 73 89 bd b1 c3 40 3d
       -0.028690198 0.12590559 -0.06711529 0.047061626
0002e0 8b 17 d2 3c 9d 0b 93 bd c5 be 2e 3b b6 42 bb bd
       0.025645992 -0.071799494 0.0026664 -0.091435835
0002f0 5f 60 72 3d 8c 44 8f 3d de 30 05 3c d6 38 14 3e
       0.059173938 0.06995496 0.008129327 0.14474806
000300 75 fc 24 3b 8a 7f 3f bd a0 32 01 bd 47 b3 99 bc
       0.002517489 -0.04675249 -0.03154242 -0.018762244
000310 21 f4 87 bc 66 1e ff 3b b2 c4 56 3d e5 f0 12 3d
       -0.016595902 0.007785606 0.052433677 0.035874266
000320 30 a7 89 bc a5 bf 9c 3d 9d c3 94 3d b4 1d bc bc
       -0.016803354 0.07653741 0.07263873 -0.022963382
000330 da a7 99 3d 0b a8 ee bc 92 df 7b bd 69 16 ff bd
       0.07502718 -0.029132864 -0.06149251 -0.12455446
000340 7b 00 86 bd ce 3f ec 3b 05 8b 82 bd e5 43 18 bd
       -0.065430604 0.0072097545 -0.06374172 -0.037174124
000350 43 da a5 bc ee f1 5f bd d0 f3 0d 3d 8e 2f 45 3d
       -0.020245677 -0.05467408 0.034656346 0.048141055
000360 6c da 3f ba f9 b4 ba bd 19 17 6d 3c d3 b6 8f bd
       -0.0007318619 -0.09116549 0.014470839 -0.07017293
000370 f5 4f a6 3d 81 b5 9a 3d 15 48 89 bd e8 6e 63 bd
       0.08120719 0.075541504 -0.06703202 -0.05552569
000380 a4 01 0e 3d 98 1e c8 bd 69 2d 94 3d f0 07 d2 3d
       0.034669533 -0.0977146 0.07235224 0.1025542
000390 95 fb 1a 3c 05 55 1a 3c c8 56 be bd 67 2c a1 ba
       0.009459396 0.009419684 -0.09293896 -0.0012296558
0003a0 d9 7f 27 bd ad c1 11 3d d5 c2 17 3e 59 eb d8 bc
       -0.04089341 0.035585094 0.14820416 -0.02647941
0003b0 4e 6a 12 bd b8 cd 52 bc 71 51 31 bc f0 88 96 bd
       -0.03574591 -0.01286643 -0.01082264 -0.073503375
0003c0 dc 62 09 3d b2 a2 49 bd 5b e2 0a be 3a 2f bd bd
       0.033541545 -0.049227424 -0.1356291 -0.092375234
0003d0 ff a5 49 3d 78 6b 15 bd 86 82 00 3e 0c e2 c2 bd
       0.04923057 -0.036479443 0.1254979 -0.09515771
0003e0 40 3f a8 3d 1c aa b8 3d 31 27 8c 3d f4 2c 1b 3e
       0.08215189 0.09016821 0.06843413 0.15153867
0003f0 eb 53 c7 3d 2f 54 01 3e ec ba 83 bc ee db 06 3e
       0.09732803 0.1262977 -0.016080342 0.13169834

conv3.bias f4 [100]
000000 72 ae 15 3d 8c 78 d8 3d 26 1c a4 bd d5 8b 8e 3d
       0.036543317 0.105698675 -0.080131814 0.069602646
000010 65 5d 23 3d 40 d9 4e be c3 6d 37 3d 11 82 92 3d
       0.03988399 -0.20200062 0.04478241 0.071537144
000020 10 78 8e bd 7c e1 1a 3c e9 85 ad bc 62 b3 8a bb
       -0.06956494 0.009453174 -0.021182017 -0.00423281
000030 71 d3 24 be da d3 f0 3c c1 d0 84 bb 1f 41 80 3d
       -0.16096283 0.029397894 -0.0040532057 0.06262421
000040 28 09 58 bd d2 b3 93 bd 88 b9 68 bd 48 9f bd bd
       -0.052743107 -0.072120324 -0.05681756 -0.09258896
000050 82 94 67 3d 40 72 ad bd 81 ab 3b bc b2 c7 74 bd
       0.056538112 -0.08469057 -0.011454464 -0.059760757
000060 87 27 86 bd e1 8a f4 bd 48 c0 95 bd 4c 46 86 bd
       -0.06550508 -0.119405515 -0.07312065 -0.06556377
000070 c5 fa 02 be ea 97 bb bd 26 8f 94 3a de b0 83 bd
       -0.12790973 -0.09159835 0.0011334165 -0.06430219
000080 00 50 f0 bd 7b dc d4 bd 2f 27 9c bd a8 e5 9e bd
       -0.11734009 -0.10393616 -0.07624661 -0.07758647
000090 c8 e5 8f bd da f3 97 3d 3d 0f 7b bd e5 22 40 be
       -0.07026249 0.07419558 -0.06129383 -0.18763311
0000a0 00 fb 5a 3c a7 7c 29 bc 95 0a 3d bd c3 72 35 3c
       0.013365507 -0.010344661 -0.04615267 0.011074725
0000b0 07 38 e0 bc 5e 45 8a bd a1 5f b3 bc 6a b9 cf bc
       -0.027370466 -0.06751512 -0.021896185 -0.025356967
0000c0 ea 69 41 bc 40 0a fc bb 06 8d 05 3d a3 87 74 be
       -0.011805037 -0.0076916516 0.032605194 -0.23879866
0000d0 62 bf b1 bd 5e 8a 2f 3d 63 c1 2d bd d1 cb cf bd
       -0.086790815 0.042856567 -0.042420756 -0.10146297
0000e0 88 1a fc bd bb 17 58 bc 17 19 c7 bd 92 07 cb 3c
       -0.12309748 -0.013189252 -0.097215824 0.024783883
0000f0 4e f5 ca bc 3f 4e 3a bd ad b8 95 3d 58 d6 56 bd
       -0.024775174 -0.045484778 0.07310615 -0.052450508
000100 02 45 8c bd ea f0 c1 bd 54 35 8d bd ca fc a5 bc
       -0.068491 -0.09469779 -0.06894937 -0.02026214
000110 fc a3 58 bd f6 38 8f 3d 8a e6 06 3d 40 46 89 3d
       -0.052890763 0.06993286 0.032934703 0.06702852
000120 b2 0c 23 bd bb 98 8f bd b5 6f 32 bb 44 5c 31 bb
       -0.03980703 -0.07011553 -0.0027227227 -0.0027063051
000130 46 46 ab bd 0c 4b 17 bd e3 ec b1 3d 69 7f cf 3c
       -0.08363013 -0.036936805 0.08687761 0.025329309
000140 76 f2 5d bd dc 13 88 bd db c2 35 bc c1 57 72 bd
       -0.054186307 -0.06644413 -0.01109382 -0.05916572
000150 0e af ab bc 88 3a b4 bd dd fa 94 bd c0 a6 10 bd
       -0.020957496 -0.088002264 -0.07274411 -0.035315275
000160 42 31 92 bd 87 c2 5a 3d bd 77 92 3d 52 4f a7 bc
       -0.071383014 0.053408172 0.071517445 -0.020423565
000170 2a 08 75 bd 25 7a 69 3d f0 9a a3 bd 48 1e 04 bd
       -0.05982224 0.05700125 -0.07988536 -0.03225544
000180 4d 4d 22 bd 4f 11 58 bc 24 31 42 3c 79 5d 0e bd
       -0.0396245 -0.01318772 0.011852536 -0.03475711

bn3.weight f4 [100]
000000 a5 ca 9f 3f 7d 69 6d 3f dd d2 8f 3f 14 85 8d 3f
       1.2483717 0.9273909 1.1236225 1.1056237
000010 66 40 8f 3f 44 50 92 3f ea e4 86 3f 99 6e 85 3f
       1.1191528 1.1430745 1.0538609 1.0424377
000020 40 fc 8b 3f 3d b1 89 3f 59 21 8b 3f c2 33 9d 3f
       1.0936356 1.0757214 1.0869552 1.228142
000030 13 c9 89 3f e7 99 84 3f 75 ce 8f 3f f5 62 94 3f
       1.0764488 1.0359467 1.1234881 1.1592699
000040 18 97 91 3f 4d d5 91 3f 11 0f 96 3f 4d 3e 8d 3f
       1.1374235 1.1393219 1.1723348 1.1034638
000050 32 cd 87 3f 79 0f 79 3f b2 a6 8c 3f e9 d4 92 3f
       1.0609496 0.97289234 1.0988371 1.1471225
000060 94 75 87 3f 11 3a 93 3f a9 0d 8b 3f 7a b6 78 3f
       1.0582757 1.1502095 1.0863544 0.9715344
000070 66 91 83 3f 62 66 9f 3f ee 1d 8c 3f cc 02 85 3f
       1.0278747 1.245312 1.0946634 1.0391479
000080 bb 36 84 3f 50 92 9c 3f ce 54 87 3f ae 38 7b 3f
       1.0329202 1.2232151 1.0572755 0.9813336
000090 fc fa 91 3f 28 b5 a1 3f 6b ac 98 3f e4 05 95 3f
       1.1404719 1.263341 1.1927618 1.1642423
0000a0 b9 2e 90 3f c3 4f 80 3f bb a1 8f 3f f1 7a 7c 3f
       1.1264259 1.0024341 1.1221231 0.98625094
0000b0 36 1d 87 3f 02 40 85 3f ed f0 8d 3f 76 16 7c 3f
       1.055579 1.0410159 1.108915 0.9847177
0000c0 e3 93 99 3f 51 53 91 3f f2 a4 80 3f 7a d1 91 3f
       1.1998256 1.1353551 1.0050337 1.1392052
0000d0 82 83 86 3f 3b 8d 8b 3f cf f2 96 3f 8e d7 86 3f
       1.0508883 1.0902475 1.1792849 1.0534532
0000e0 a1 f9 85 3f 82 67 87 3f 08 fb 87 3f e9 c8 82 3f
       1.0466806 1.0578463 1.0623484 1.0217563
0000f0 76 7c 8b 3f 7e cd 80 3f 7a 54 97 3f 6b a9 83 3f
       1.0897357 1.0062711 1.1822655 1.0286077
000100 ec 11 92 3f d4 54 8d 3f 42 42 7b 3f 03 6f 8f 3f
       1.1411719 1.1041512 0.98147976 1.1205753
000110 e5 99 90 3f 07 a9 85 3f f2 32 87 3f fe db 94 3f
       1.1296965 1.0442208 1.0562422 1.1629636
000120 9a f7 82 3f d1 b0 9a 3f 8a 1a a1 3f e4 1c 87 3f
       1.0231812 1.208521 1.2586224 1.0555692
000130 36 f5 8b 3f 15 2b 72 3f ce 86 86 3f 90 af 91 3f
       1.0934207 0.9459699 1.0509889 1.1381702
000140 11 34 a3 3f f5 7d 93 3f ed 88 8b 3f 43 9a 84 3f
       1.2750264 1.1522814 1.0901161 1.0359577
000150 3b 06 8a 3f fa 0c 8b 3f 57 82 7f 3f 09 88 8f 3f
       1.0783151 1.0863335 0.9980826 1.121339
000160 6c e8 8d 3f 95 1c 85 3f 8b da 91 3f 66 24 8f 3f
       1.1086555 1.0399348 1.1394819 1.1182983
000170 50 53 88 3f 70 36 80 3f d6 5e 80 3f f5 10 75 3f
       1.0650425 1.0016613 1.0028942 0.95729
000180 9a 03 8e 3f e3 c4 90 3f 56 7d 89 3f 71 25 8c 3f
       1.1094849 1.1310085 1.0741374 1.0948926

bn3.bias f4 [100]
000000 3f d0 77 bc 2a f4 3a 3d c1 5d 8e bb bc 2c 2c 3d
       -0.015125333 0.04564301 -0.0043446724 0.04203485
000010 cf a2 12 bd f2 9c 1a bc 49 91 51 bd b1 ea 69 bd
       -0.035799798 -0.009436833 -0.051163945 -0.057108585
000020 80 d8 d4 ba aa a9 b5 bd e8 8f f2 bc 07 e9 59 3c
       -0.0016238838 -0.088702515 -0.029609635 0.013300187
000030 96 b3 86 3c b6 8e a0 bc 92 90 8a 3d 5f d4 04 bc
       0.016443055 -0.0195993 0.06765856 -0.008107274
000040 34 56 e7 bc 38 d7 b5 bc ba 0a 36 3d 84 c3 10 bd
       -0.028239347 -0.02219735 0.044443823 -0.03534271
000050 e3 32 5b bd 40 ad 11 be 07 84 c0 bb bf d2 1b 3c
       -0.053515326 -0.14226246 -0.005875114 0.009510695
000060 27 5d 15 bd ba 59 b3 bc 9d 51 50 3c d0 eb e9 3c
       -0.03646579 -0.02189337 0.012714771 0.028554827
000070 d5 1e ca bc 9f aa 8b 3b bd 81 d6 3c fa df d6 3d
       -0.024672905 0.004262283 0.02618491 0.10491939
000080 97 2c 10 3d c9 2f 82 3a cf 18 17 3d 10 92 e8 3c
       0.035198774 0.0009932454 0.036888894 0.02838996
000090 4f 63 03 3d 51 41 ad bc 89 01 61 3d 86 df 94 3c
       0.03207713 -0.02114931 0.054933105 0.01817299
0000a0 f4 54 1b bd 18 9e 73 3d 6a f3 2f 3c e3 14 8e bc
       -0.037922814 0.05947694 0.010739187 -0.017343944
0000b0 82 10 18 3d 55 f5 cf 3c 6b c5 81 bd c1 94 74 3d
       0.037125118 0.025385538 -0.063364826 0.059712175
0000c0 49 11 5b 3d 66 18 d9 bc a1 99 19 3d 71 40 5c bd
       0.05348328 -0.026500892 0.037500028 -0.053772394
0000d0 3a 3b ca bd 97 10 33 3d e7 93 3f 3c d8 30 eb bd
       -0.09874578 0.043716993 0.0116929775 -0.114839256
0000e0 26 40 7f bd e0 ac dd bc b5 a8 12 3d 62 d9 33 bc
       -0.062317036 -0.027059972 0.035805423 -0.010977121
0000f0 7d 53 5c bd 77 cb c4 3c 99 b9 18 3d 0e df e2 bc
       -0.053790558 0.0240228 0.037286375 -0.027694251
000100 b7 7b 04 3d fb e6 08 3d c6 48 1d bc e3 73 3b bd
       0.032344546 0.033423405 -0.00959987 -0.045764815
000110 98 a5 d4 bd d4 4c 4e 3d 1a 34 96 bd 08 9c c8 3c
       -0.10383147 0.050366238 -0.07334156 0.024488464
000120 6b 66 a6 bc 0c 93 c0 bd 7a fc 2d 3c fa 0a aa 3c
       -0.020312509 -0.09403047 0.010619277 0.020757187
000130 3c b8 1a bd 5f 35 30 3c 8c 8a 81 bc 74 80 2d 3d
       -0.037773356 0.010754912 -0.015813135 0.04235883
000140 56 c3 9e bd b3 d1 6b 3c c1 af 93 bb d2 0c cf bc
       -0.07752101 0.014393258 -0.0045070355 -0.025274668
000150 d4 ad 3e 3d 87 03 6d 3d e4 14 80 3a d0 d8 5d bc
       0.046552494 0.057864692 0.0009771851 -0.013540462
000160 b3 56 ba bc b1 8c ee bb cf fb 03 3d 51 d0 97 bd
       -0.02274642 -0.0072799553 0.032222565 -0.0741278
000170 38 09 97 3c 63 82 06 3d e4 fd 25 3d ad 66 bc 3d
       0.018437013 0.03283919 0.040525332 0.09199271
000180 d1 66 eb bc f3 a7 50 3d 3a 83 14 bd e1 db e1 b9
       -0.02873555 0.05094142 -0.03625796 -0.00043079167

bn3.running_mean f4 [100]
000000 55 0e 96 40 6e 91 7d 40 41 01 1e 40 7f ee 26 40
       4.6892495 3.9620013 2.4688265 2.6083066
000010 94 ba 51 40 a8 7e 83 40 30 38 6c 40 9e be a1 40
       3.2770128 4.109211 3.6909294 5.0545187
000020 ae ac 5e 40 9c 7d 84 40 29 dc 42 40 43 9a f0 3f
       3.4792895 4.140333 3.0446875 1.8797077
000030 01 b1 23 40 c7 fa 87 40 18 35 49 40 2d d1 82 40
       2.5576785 4.2493625 3.1438656 4.088034
000040 df 0f 6d 40 e3 b6 82 40 24 c9 42 40 d4 9a 84 40
       3.7040937 4.084825 3.0435266 4.1439
000050 82 e7 34 40 74 37 23 40 83 d2 56 40 b8 8e 71 40
       2.82663 2.5502596 3.3565986 3.7743359
000060 3d 2f 76 40 8b 7c c5 3f 94 25 25 40 a7 0f 97 40
       3.8466332 1.5428632 2.5804186 4.7206607
000070 df ee 77 40 3a e3 8d 40 75 74 45 40 d8 20 81 40
       3.8739545 4.4339876 3.085233 4.0352592
000080 8a 5b 0c 40 95 d8 91 40 21 cc 0c 40 98 8c 2c 40
       2.193087 4.557688 2.199959 2.6960812
000090 86 39 37 40 41 87 97 40 f8 3c 5e 40 3e 5e 30 40
       2.862886 4.7352605 3.4724712 2.755752
0000a0 35 59 60 40 56 12 9c 40 eb bd 07 40 7a 9c 74 40
       3.5054448 4.8772383 2.1209667 3.8220506
0000b0 78 34 1f 40 22 8d 53 40 50 94 42 40 3c 4c 8f 40
       2.4875774 3.305489 3.0403023 4.478056
0000c0 25 e3 33 40 e0 02 68 40 60 b6 1c 40 0a 27 45 40
       2.8107388 3.6251755 2.4486313 3.0805078
0000d0 e4 a6 5d 40 f2 1b 76 40 a8 2f 8f 40 9e 3b 48 40
       3.4633112 3.8454556 4.4745674 3.1286387
0000e0 42 a6 36 40 74 91 8b 40 dc 1a 32 40 38 c2 66 40
       2.8538976 4.3615055 2.7828894 3.6056042
0000f0 0c 82 61 40 66 27 08 40 12 cb 45 40 2d 54 44 40
       3.5235624 2.1274047 3.0905194 3.0676377
000100 11 6e 79 40 13 21 59 40 df 3e 39 40 4c f2 52 40
       3.897343 3.3926437 2.8944623 3.2960386
000110 50 86 64 40 69 ef a0 40 9b 00 10 40 44 7f 7b 40
       3.5706978 5.029225 2.250037 3.9296427
000120 c1 af 32 40 ef 8e 8a 40 94 46 91 40 0a 6a 9d 40
       2.7919772 4.329948 4.5398655 4.919194
000130 72 53 2a 40 71 c9 92 40 53 20 33 40 ab 5e 58 40
       2.661343 4.58709 2.798848 3.380778
000140 53 1f 81 40 87 a9 6f 40 b7 7d 2f 40 33 fb 90 40
       4.0350738 3.7447221 2.742048 4.530664
000150 37 64 45 40 82 06 03 40 6d 06 25 40 31 e2 49 40
       3.0842416 2.0472722 2.5785172 3.1544306
000160 8e d4 24 40 6d 0b 5a 40 d3 d2 8e 40 f1 1c 03 40
       2.5754733 3.4069474 4.4632354 2.0486414
000170 0b e5 9a 40 04 50 43 40 04 7f 5c 40 ee 98 8f 40
       4.8404593 3.0517588 3.4452524 4.487418
000180 ea 77 2a 40 05 2a 71 40 1b 06 8e 40 7f 32 93 40
       2.663569 3.7681897 4.4382453 4.599914

bn3.running_var f4 [100]
000000 04 4f 48 41 21 65 25 41 6e 7f de 40 e8 a0 a4 40
       12.519291 10.33719 6.9530554 5.144642
000010 2e 82 0e 41 d8 4e 22 41 44 37 a2 40 61 fb cb 40
       8.906782 10.144249 5.0692463 6.374436
000020 64 24 f9 40 cd 64 0c 41 ca c4 20 41 40 d3 9a 40
       7.785692 8.77461 10.048044 4.8382874
000030 91 25 a1 40 03 84 d5 40 c4 e2 ed 40 b2 b9 11 41
       5.0358357 6.6723647 7.4339314 9.107836
000040 43 92 ea 40 1f 82 03 41 76 8f eb 40 3f 0a 01 41
       7.330354 8.219268 7.3612623 8.0650015
000050 95 b7 e5 40 81 5b 87 40 f4 ee ed 40 99 13 40 41
       7.17866 4.22992 7.435419 12.004785
000060 2c 43 03 41 8f d2 46 40 76 38 c3 40 48 a4 4f 41
       8.203899 3.1066015 6.100642 12.977608
000070 3e b8 23 41 13 1a 36 41 79 c2 ff 40 64 f6 08 41
       10.232481 11.381366 7.9924893 8.560154
000080 f8 bb 93 40 80 75 1a 41 13 dc 98 40 fb 07 c8 40
       4.6166954 9.653687 4.7768645 6.250974
000090 38 7f d4 40 4a c9 fa 40 38 1d e6 40 64 a8 a4 40
       6.6405296 7.8370714 7.1910667 5.1455555
0000a0 c1 ad dd 40 66 a9 3f 41 3d 3e c0 40 aa f6 f7 40
       6.92746 11.978857 6.0075974 7.7488604
0000b0 8c b1 96 40 f3 42 14 41 da 24 ec 40 a1 25 2c 41
       4.709173 9.266345 7.3794985 10.759187
0000c0 23 3c 01 41 d7 84 fd 40 fb b7 ce 40 44 22 cf 40
       8.077182 7.922466 6.4599586 6.472933
0000d0 b9 5d eb 40 fe b5 05 41 b1 d3 d7 40 a2 c1 14 41
       7.3551908 8.356932 6.744591 9.297274
0000e0 97 2f 12 41 31 29 12 41 7d 3d 14 41 6b 17 de 40
       9.136619 9.1350565 9.265012 6.9403586
0000f0 d8 4b 03 41 b6 07 b0 40 df 94 cf 40 63 d8 d3 40
       8.206017 5.5009413 6.4869227 6.6201644
000100 a1 b6 ec 40 ce e4 2f 41 7f 39 82 40 cc 11 d0 40
       7.3972936 10.9933605 4.0695186 6.5021725
000110 47 c4 f0 40 1f 7f 4c 41 0f e8 89 40 09 2b 28 41
       7.5239596 12.781035 4.3095775 10.510507
000120 fc de d4 40 dc 84 5c 41 61 c0 09 41 df 6f 18 41
       6.65222 13.782436 8.6094675 9.527312
000130 09 b6 d4 40 75 62 f4 40 9f 71 d4 40 93 d4 1e 41
       6.647221 7.6370187 6.63887 9.926898
000140 5a c3 d8 40 5a 3a 04 41 6b 85 df 40 4e a4 2f 41
       6.7738466 8.264246 6.9850364 10.977613
000150 67 5c d7 40 1d 25 cf 40 78 5d b9 40 cb a9 1f 41
       6.7300296 6.4732804 5.7926598 9.978953
000160 c9 3b c2 40 71 c6 da 40 0a 41 2f 41 1d 80 85 40
       6.069798 6.836724 10.953379 4.171889
000170 ab b1 21 41 49 a6 e5 40 70 6c eb 40 95 34 d1 40
       10.105876 7.1765485 7.356987 6.5376687
000180 5a fa 9e 40 52 49 15 41 8b d3 ed 40 01 20 29 41
       4.9680605 9.3304 7.432073 10.570313
